…
.add(Conv2D(filters=64,kernel_size=(3,3),activation='relu'))# 最大池化层model.add(MaxPooling2D(pool_size=(2,2)))# Dropout 25% 的输入神经元model.add(Dropout(0.25))# 将Pooled feature map 摊平后输入全连接网络model.add(Flatten())## Classification# 全连接层model.add(Dense(128,activation='relu'))# Dropout 50% 的输入神经元model.add(Dropout(0.5))# 使用softmax 激活函数做多分类，输出各数字的概率model.add(Dense(10, activation='softmax')) 查看 MNIST CNN 模型网络结构1model.summary() _________________________________________________________________ Layer (type) Output Shape Param # ================================================================= conv2d_1 (Conv2D) (None, 26, 26, 32) 320 _________________________________________________________________ conv2d_2 (Conv2D) (None, 24, 24, 64) 18496 _________________________________________________________________ max_pooling2d_1 (MaxPooling2 (None, 12, 12, 64) 0 _________________________________________________________________ dropout_1 (Dropout) (None, 12, 12, 64) 0 _________________________________________________________________ flatten_1 (Flatten) (None, 9216) 0 _________________________________________________________________ dense_1 (Dense) (None, 128) 1179776 _________________________________________________________________ dropout_2 (Dropout) (None, 128) 0 _________________________________________________________________ dense_2 (Dense) (None, 10) 1290 ================================================================= Total params: 1,199,882 Trainable params: 1,199,882 Non-trainable params: 0 _________________________________________________________________ 12for layer in model.layers: print(layer.get_output_at(0).get_shape().as_list()) [None, 26, 26, 32] [None, 24, 24, 64] [None, 12, 12, 64] [None, 12, 12, 64] [None, None] [None, 128] [None, 12
…
